lrs/975ef98316de0e2eebf2935b279df37479-27-donald-trump-thumbs-up.rsquare.w700_01.npy (npy, 36992 bytes, 1 tensors)

array f4 [18, 512]
00000000: 18df c13d 06c2 d93d 9095 ba3c 3648 173e
00000010: 4148 9c3c 6250 bebc f22e 033c 0985 e6bd
00000020: c10d 0b3e d3fc ccbc 15c5 633e f05c 94bd
00000030: 80bc 603c 3687 92bd 764d 853c c587 043e
00000040: f688 673c 6548 593d dd72 123e 0daa 5e3d
00000050: 98a8 033e b094 cc3d 364a 8cbd eecf f33d
00000060: d74e 1dbe 7adc 4c3e 64c4 54bd 96d3 753d
00000070: 2a53 0bbe 9dce 4a3e c6bb f63b eb9d 4cbd
00000080: 3d64 d5bc 9481 333e 2e8b 34bd 19db 61bd
00000090: 5842 51bd 925e 0dbe b26c 94bd 162c 113c
000000a0: ea06 ac3d ee09 123e cb3a 583e 6f50 13be
000000b0: 8303 d83d d9fe 96bc 2ab4 c6bd 6f85 a33d
000000c0: bfb0 6dbe 3ced 80bd 2c0b 113d c6e7 90bd
000000d0: 7aeb 0abe 03ac efbd f415 9d3e d366 303e
000000e0: f6b9 c03c 52d5 52bd cb69 ecbc b763 a43d
000000f0: e89c b3bb 8cbc 0fbe 19e7 52bd 43f6 8ebe
00000100: 6719 603e 8264 04be d56e a23c 7f8e 0d3e
00000110: 563e c33c dccd 02be 1694 40bb 4819 1e3d
00000120: a53b 90bc 9213 9d3d 86a2 043e 4850 763d
00000130: 1383 7a3e 4d0f 90bd 06bf dfbd f406 a5bb
00000140: db59 013e e9d3 44bd b438 34be 954a 1bbe
00000150: 900e 23be 537e 6e3e 14d8 0ebe dac4 0ebe
00000160: a5dc 8cbc b6b6 9e3c f0cf 083f c1f5 7bbd
00000170: d11a 9b3d d36d 663e 12e9 42be 8052 9d3b
00000180: 9366 a13e dcfa 1a3e 8ea3 113f 69f3 043d
00000190: 44e3 2f3d 1aa8 843d c928 27be 4b32 603e
000001a0: 4d5a 423d 42ef 11be c691 a93d 2c1b 443e
000001b0: 0a6f d63c 28f8 13be 59dd 413d 7a56 ccbe
000001c0: 4855 e23d aa53 82be 1111 21bd 6c3f 23be
000001d0: ca22 23bd 0cda 153d 50de c33d 3211 173d
000001e0: 3a3d 863e 9634 c0bd 23bf c3bd 5989 403e
000001f0: 37f7 663d 0019 8e3d d496 db3d fea2 15be
00000200: c871 1bbd 5035 81bd 539f c33d c716 263e
00000210: c602 3e3d 1b90 363d 348e 4ebd 8f44 9c3d
00000220: 16f3 9f3d ec0e d7bd 5b25 79bd 0bca 52bd
00000230: e781 253e 2aef a73d a251 9bbb e357 b4bd
00000240: 1801 e9bd 5150 06bd 715b cabd cb1f f13d
00000250: edf6 8dbd 7183 9e3d 66bf 9e3e 1f3c 78bc
00000260: 2f62 e1bc aad6 293d 6229 98bd 9db9 693e
00000270: 4116 6b3e 0898 aa3c 8020 59bd ce7f 373e
00000280: 4aa2 cd3d 582d 543e 716c d13d 23ec 5b3e
00000290: a81c bc3b 2e56 81be 4635 ebbc 0a4c f3bd
000002a0: bf50 383c 6854 413d af92 a6bd 9cb1 493e
000002b0: 655e b83d edaf 82bc d0fd 0cbe 46a8 7abe
000002c0: dd3a fb3d 89ee 88bd 560e 0cbe 1bdb 6e3e
000002d0: b659 c0bc 0135 c33d 140b 133d 62b4 e73d
000002e0: b506 673d 1067 273e 1a0a 55bd 755b 853e
000002f0: 2cc0 933e 9a00 18bc 93e0 4dbe 40bb 43be
00000300: 8191 913c 2a43 643d 87fe ecbd e49c 303d
00000310: f824 05be a2cc b4bd cb02 3b3c 684f 3e3e
00000320: 8cd4 cb3b 001c 03be 1e41 babd f1a6 43be
00000330: 41c3 d73d e840 553d b7c1 acbd d1d5 173e
00000340: 11bf f7be 27cb 3a3d e5a8 fe3d 007e b2bd
00000350: 1049 583e ae6b 8d3d fd8a 593d eb73 c73d
00000360: 6e09 893d 0f86 59be d84a 013e d0d4 ae3c
00000370: aa1d 18be 4c83 fc3d 7bed 9d3b 0273 3d3c
00000380: 4050 4cbe 8f05 503d 67c8 9cbd 3146 b53e
00000390: 8322 903c 7f59 363e b03d 19bc b8f6 523e
000003a0: a37e 303e c0b1 ee3d 3bee b23e b12b 723e
000003b0: 099b 8f3c b2fd a33d 0415 743e 9d45 4dbe
000003c0: 414e efbd 7a10 433c e23c 953d adc9 a73d
000003d0: 888b 86ba 4a4e c3bc c4f8 e93c 5255 173e
000003e0: 9497 bdbd 0043 573c 38f2 f13c ea84 d93d
000003f0: e44b f0bd 40fc 29be e946 873e b781 f5bd
0.0946638 0.1063271 0.022776395 0.1477364 0.019077422 -0.023231689 0.008006798 -0.11255843
0.13579465 -0.0250229 0.2224315 -0.07244289 0.013716817 -0.07154696 0.016272288 0.12942417
0.014131775 0.053047556 0.1430163 0.05436139 0.12857282 0.099892974 -0.06850092 0.11904894
-0.15362106 0.2000598 -0.051945105 0.060016237 -0.13605943 0.19805379 0.0075297086 -0.04995529
-0.026048774 0.17529899 -0.044078045 -0.05514059 -0.05108866 -0.13805607 -0.072472945 0.008860609
0.08399756 0.142616 0.21116178 -0.14386152 0.10547545 -0.018432068 -0.09702332 0.07984435
-0.23211955 -0.06295249 0.035411045 -0.07075457 -0.1356639 -0.117027305 0.3068081 0.17226724
0.023526173 -0.05147297 -0.02885904 0.080268316 -0.005481351 -0.14036769 -0.051489923 -0.27922258
0.2188469 -0.12928966 0.01982824 0.13823889 0.023833435 -0.12773842 -0.002938514 0.03859833
-0.017606566 0.07669748 0.12952623 0.060135156 0.24464063 -0.070341684 -0.10925107 -0.0050362293
0.12631933 -0.048053656 -0.17599756 -0.1516517 -0.15923524 0.23290376 -0.13949615 -0.1394228
-0.017195055 0.019374233 0.5344229 -0.061513666 0.07573474 0.22502832 -0.19034222 0.0048010945
0.3152357 0.15134758 0.5689019 0.032458697 0.042941347 0.06477375 -0.16324152 0.21894185
0.0474494 -0.14251426 0.08279757 0.1915099 0.026175994 -0.14450133 0.047330234 -0.39909726
0.11051422 -0.25454456 -0.039322916 -0.15942162 -0.0398281 0.0365849 0.09563887 0.036881633
0.26218587 -0.0938503 -0.09557941 0.18802394 0.056388106 0.06938362 0.107221276 -0.14612958
-0.037950307 -0.06308997 0.09551873 0.16219626 0.046389364 0.044571023 -0.050428584 0.07630264
0.07810037 -0.10500893 -0.06082664 -0.051462214 0.16162835 0.08199914 -0.004739956 -0.088058256
-0.11377162 -0.03279144 -0.09880722 0.11773642 -0.06931863 0.07739914 0.310054 -0.015151053
-0.027512638 0.041464485 -0.07429768 0.22824712 0.22957708 0.020824447 -0.05300951 0.17919847
0.1004072 0.20720422 0.10225762 0.21476798 0.005740721 -0.25261062 -0.028711926 -0.11879738
0.01124972 0.047199637 -0.081334464 0.19696659 0.09002379 -0.015953029 -0.13768697 -0.24478254
0.12267087 -0.06686122 -0.13677344 0.2332577 -0.023480278 0.09531594 0.035899237 0.11313702
0.05640288 0.16347909 -0.052011587 0.2604634 0.28857553 -0.009277487 -0.201052 -0.19114399
0.017769577 0.055728115 -0.11571985 0.043118373 -0.13002384 -0.08828093 0.01141424 0.18584979
0.006220406 -0.1280365 -0.09094451 -0.19106652 0.105352886 0.052063853 -0.08435386 0.14827658
-0.4838796 0.045603897 0.12434558 -0.08715439 0.21121621 0.06905304 0.053111065 0.097389065
0.06691252 -0.21242546 0.12626207 0.021341711 -0.14855066 0.123297304 0.0048195696 0.0115630645
-0.19952488 0.05078655 -0.07655411 0.35405114 0.017594581 0.17807578 -0.009353086 0.20601928
0.17235808 0.11654997 0.3494738 0.2364948 0.017529981 0.08007373 0.23836142 -0.20046087
-0.116848476 0.011905784 0.07287003 0.081927635 -0.0010264972 -0.023841042 0.028561004 0.14778641
-0.09257427 0.013138533 0.029534444 0.106210545 -0.11733225 -0.16600132 0.26421288 -0.11987632
